nets/tflite/lite-model_deeplabv3-mobilenetv2_dm05_1_default_2.tflite (tflite, 789724 bytes, 123 tensors)

MobilenetV2/expanded_conv/depthwise/BatchNorm/FusedBatchNorm f4 [16]
00000000: 9c1e a740 6d90 0e40 7da6 0bbf de2f 1940
00000010: c66f 723f 5875 1b3f 0f87 8540 bf21 73be
00000020: 1a50 c240 b125 4d3f 2ee8 9d40 984e 0ebd
00000030: 3ecd 2340 80c5 3ebd 4fcd 8040 5630 ffbf
5.2224865 2.227565 -0.54550916 2.3935466 0.947018 0.6072593 4.1727366 -0.23743342
6.072278 0.8013564 4.9345922 -0.03474292 2.559402 -0.04657507 4.025062 -1.9936626

MobilenetV2/expanded_conv_1/depthwise/BatchNorm/FusedBatchNorm f4 [48]
00000000: f280 a93f 3893 153f fa38 843f f2ab 80be
00000010: b612 8a3f 1c22 8d40 3030 e3bc 64d8 2ec0
00000020: da10 bd3e d5e2 bf3d b198 2340 56ab 3a3e
00000030: 99f3 bb3f 39e2 123d 55a9 1740 f869 ba40
00000040: 1575 303e f2a9 753c 26d7 0140 4841 703e
00000050: 10e7 4b3c 1075 4c3f 0a1a 7040 4098 42bc
00000060: 3698 9f3c 3a50 98be f0da 9bbe 531e 6240
00000070: 8c33 17bf cd57 873f ea90 49be 3441 b03c
00000080: c042 8e3e b6d9 0541 b8bd 353f cf9b 47bf
00000090: 80e7 65bb d6e6 273d 6830 8bbd 7813 0f3c
000000a0: 0069 1bc1 a070 a7bd 0194 04c1 7337 433f
000000b0: ad7e 9d3d 037b 8dbd 06d5 a6bc 5818 f53e
1.3242476 0.58427763 1.0329888 -0.25131184 1.078696 4.4104137 -0.027732939 -2.7319574
0.3692692 0.09369437 2.5561945 0.18229422 1.4683715 0.035860274 2.3697102 5.8254356
0.17232163 0.014994131 2.0287566 0.23462403 0.012445226 0.79866123 3.7515893 -0.01187712
0.01948176 -0.29748708 -0.30440474 3.5331008 -0.5906303 1.057367 -0.19684187 0.021515466
0.277853 8.365652 0.7099261 -0.7797212 -0.0035080612 0.040991627 -0.06796342 0.008732669
-9.713135 -0.081757784 -8.286134 0.76256484 0.07690177 -0.06908228 -0.02036525 0.47870135

MobilenetV2/expanded_conv_2/depthwise/BatchNorm/FusedBatchNorm f4 [72]
00000000: c879 9f3f 04e6 a13f b3c1 203e 002d 41bd
00000010: 1a1f 2640 e956 883f 44bb a53d d8d9 b73d
00000020: 07db 2f40 64b0 953e 67ff 7641 60b8 26bb
00000030: 3a76 6cbd 9a97 1d3f 1254 0bbf 82ff 5fbd
00000040: a676 50bd c605 a740 5417 06c0 ffad 93bf
00000050: 138f 73bf 7075 f83f 9c9d 1040 4272 9fbe
00000060: e784 253e b4fc 2cbf 62ca 4a40 ea66 6ebd
00000070: 3872 0f40 5ef2 033c e131 efbe 58cb cfbd
00000080: 9f71 6ec0 3481 e640 a192 6d40 9211 1140
00000090: 852a 0abd f8d1 77be 00e7 e73e 8e5a d13c
000000a0: 3b01 67be ad2e d9be 96f6 3741 68b9 e33e
000000b0: 92ae 3d40 8f71 cd3e 7623 d0bd a89f d53c
000000c0: 3d9d 3040 c601 9a40 d245 9c3e 8002 cb39
000000d0: f938 4f40 9867 5b40 b437 9fbd 7aee 593e
000000e0: eef7 9fbd faad 3e3e b67a 2fbd 3e93 1840
000000f0: 9b80 9cbe 844f b2bd 083e dbbe 2289 f5bc
00000100: 52f1 6f40 f2d7 3d3f 86b5 3b40 dc63 1540
00000110: b065 8fbc 5227 e53e e81e 143f 8cf2 1f3d
1.245904 1.264832 0.1569889 -0.047162056 2.5956483 1.0651523 0.08092359 0.08977097
2.7477434 0.29236138 15.437354 -0.0025439486 -0.057729937 0.6155945 -0.54425156 -0.05468703
-0.050894402 5.219455 -2.0951738 -1.1537474 -0.9514019 1.9410839 2.2596197 -0.3114186
0.1616398 -0.67573094 3.1686025 -0.058203615 2.2413464 0.00805339 -0.46717742 -0.101462066
-3.725685 7.203272 3.7120745 2.2666974 -0.033731956 -0.2420119 0.45293427 0.025555875
-0.22559063 -0.42418423 11.497702 0.4447739 2.96378 0.401257 -0.10163014 0.026077107
2.759597 4.8127165 0.3052202 0.0003872104 3.2378523 3.4281979 -0.077742964 0.21282378
-0.07810961 0.18621054 -0.042841636 2.383987 -0.30566868 -0.08706573 -0.42820764 -0.029972617
3.749104 0.7415763 2.9329543 2.33422 -0.017504543 0.44756562 0.5785966 0.03904967

MobilenetV2/expanded_conv_3/depthwise/BatchNorm/FusedBatchNorm f4 [72]
00000000: fcd8 963f adc2 adbf 10e9 b63f 1053 583f
00000010: f39f e2be 216e b63f 60a3 053e 59b4 bc40
00000020: 58b6 013d 1c82 b23e d6cb 3940 5526 1c40
00000030: 5498 ebbd e504 043f 519e 403f a013 34bd
00000040: 9116 8e40 9938 bb40 8842 8e3e cc10 cd3f
00000050: 78f4 4c3e af45 2d40 035b e73f e01e bfbd
00000060: b051 ba3e c0c7 a2bd 885c 893d 6c7e fa3d
00000070: 35ad 64be 7d61 2940 f216 e53f 08b2 e53d
00000080: 60e8 5d3e 90be 5abe 4f01 983f 216a 883f
00000090: d871 8c3e 9823 893f 465b c03d 2cca b1bd
000000a0: fc06 0840 47f8 ec3e a493 0dbe ccc3 a83f
000000b0: 78a9 dcbd 14bc 8bbe e8bb 6040 0a34 67be
000000c0: 1043 aa3d f65b df3e 94d4 78bd dbf6 713e
000000d0: 8ade 9f3d 7fb1 ab3f 1ab2 2d3f 4c00 0c40
000000e0: f0e5 bb40 34be bfbf aa9a f03e 3ddf 833f
000000f0: 2b0c 0041 fdc9 1440 bf1f a8be 18eb 883d
00000100: a090 1abd 7406 1d3e 54fa a03e eeee 8a3d
00000110: b4e2 0fbf 2a5c 703f 66ce 0640 ca09 8040
1.1784968 -1.3575035 1.4289875 0.84501743 -0.44262657 1.4252359 0.13050604 5.897015
0.031668037 0.3486489 2.9030662 2.4398396 -0.11503664 0.5156997 0.7524157 -0.04396403
4.4402547 5.850659 0.27785134 1.6020751 0.20015132 2.7073781 1.807465 -0.09332061
0.36390448 -0.079482555 0.06707102 0.12231144 -0.22331698 2.6465752 1.7897627 0.112155974
0.21670675 -0.21361756 1.1875399 1.0657388 0.27430606 1.0713987 0.09392409 -0.08681139
2.1254263 0.4628317 -0.13825852 1.3184752 -0.10774511 -0.2729193 3.511469 -0.22578445
0.083135724 0.43624848 -0.060749605 0.23629324 0.07806118 1.3413543 0.67849886 2.1875181
5.8718185 -1.497992 0.46993 1.0302502 8.002971 2.3248284 -0.3283672 0.066854656
-0.03773558 0.15334493 0.31440985 0.067838535 -0.56205297 0.9389063 2.1063476 4.001195

MobilenetV2/expanded_conv_4/depthwise/BatchNorm/FusedBatchNorm f4 [96]
00000000: 88f3 583d 987c 243e 4130 45c0 e927 6d3e
00000010: 6e9e c63e f5d3 3840 2c2c 43bd db4a 353e
00000020: becb 433e 2e54 ab3e 333e 0ac0 a707 9ac0
00000030: 5e91 3bbf 1e5e ddbf 4085 4fbb 641e b83f
00000040: 434f a2bd 80cf 9b3f e959 7cc0 f9cb c9be
00000050: 7ab1 3a40 dfcf 0fbe 017f 0a40 6335 ce3f
00000060: 3a14 c440 60bc 6e3d e8e9 f63e 9fbb c0be
00000070: 90a2 a5bc 6c63 eb3e 58c1 2bbf 6376 fdbe
00000080: 2663 83c0 b0d1 3a3f ac4f 01bd 2014 b0bd
00000090: 9595 1640 9f42 a63d 4814 88be 58fc 8f3d
000000a0: 2c2d 783f 11ee d4be 1804 d5bd 2ab8 433e
000000b0: f83e ecbf a53b ec3d 643d a53d 6bcc 0a40
000000c0: 0ce4 263e 0e18 6340 4ea9 2ebf f6bf 103f
000000d0: ac25 3a3d 54fd 72c0 5d88 d1bf 10db 4e3f
000000e0: 2834 cf3c 8177 1d40 60fc 56bc bc5b 5d3d
000000f0: 321d 5240 8045 3540 888e 7abe 66f6 f4be
00000100: 00db 803a 4cf7 c6bf f412 79bf ae9e 91bf
00000110: 51c2 86c0 26fe 97bd 52ac 82c0 a1c8 29c0
00000120: e920 4840 66dd debf e66f ffc1 7d08 16be
00000130: 29fe e8bf 30b6 f7bc 8682 1cbf 7066 2f3c
00000140: 2ea8 cd3f e082 ac3b 2d23 ad3b 5ba6 8ebe
00000150: a82e a43f 1c96 a93f 34f1 9bbc 4260 0a40
00000160: 901a b83c 1ace e43e c090 2b3d 262c c7bf
00000170: 590f a7bf f71f aebe 7844 06bd 6092 5f3b
0.052966624 0.16063154 -3.0810702 0.23159756 0.38792747 2.8879368 -0.047649547 0.17704336
0.1912069 0.33462662 -2.1600463 -4.813434 -0.7326869 -1.7294347 -0.0031665117 1.4384274
-0.07925274 1.2172699 -3.9429877 -0.3941343 2.9170823 -0.1404414 2.1640017 1.6110042
6.127469 0.058285117 0.4822533 -0.37643144 -0.020219117 0.4597429 -0.67091894 -0.49504384
-4.105853 0.7297621 -0.03157012 -0.085975885 2.3528798 0.08118176 -0.26577973 0.070305526
0.96943927 -0.4158788 -0.104011714 0.19113222 -1.8456717 0.11534814 0.0806835 2.1687267
0.1629793 3.5483432 -0.6822709 0.5654291 0.045446083 -3.796712 -1.636974 0.8080301
0.025293425 2.460419 -0.013121694 0.054042563 3.283032 2.832367 -0.24468434 -0.47844237
0.0009830892 -1.5544219 -0.97294545 -1.137655 -4.2112203 -0.07421522 -4.083535 -2.6528704
3.1270087 -1.7411315 -31.929638 -0.14651676 -1.8202564 -0.030238241 -0.6113666 0.010705575
1.6066949 0.005264625 0.0052837343 -0.27861294 1.2826738 1.3248935 -0.019035913 2.162125
0.022473603 0.44688493 0.04188609 -1.5560348 -1.3051559 -0.34008762 -0.03278014 0.0034114346

MobilenetV2/expanded_conv_5/depthwise/BatchNorm/FusedBatchNorm f4 [96]
00000000: 1078 afbd 7dc0 1340 5a74 98bd 7974 7f40
00000010: 5bff 88bf 4a3a 9fbe a033 5a3d cecb 9f3f
00000020: 4cf7 74c0 3b33 33be d7f8 533f be5d 2440
00000030: bf5f 3540 14ef 4d40 e861 2a40 d02a 2b3e
00000040: 1192 193f 0917 d53d 963f 5cbf cc34 2abf
00000050: 1666 d4be 1726 8b3f dd1d d3bf 9839 0ebe
00000060: 712c dfbe b79f a740 cd7a 8240 2b43 65be
00000070: 4566 f7be e08f 1bbc a693 c43d 0ce1 b1bf
00000080: b7e4 4040 defd d6be aa93 b3bf 384d b53e
00000090: 464d 5b3f 1094 e53c 3238 4d40 6497 98c0
000000a0: 4f69 c7bf 9d7e c2bd 895f fcbd c8cd 98bd
000000b0: 64a0 5e3d 80b7 383d 554b e8bf e4d7 9fbe
000000c0: 4ca1 32bf ef29 503e 0a29 aabe 86e0 d83e
000000d0: 888b c6bf 7717 9f3f 0485 2b40 563a a7be
000000e0: 2063 153f e879 fa3d 34e3 29bf d092 4dbc
000000f0: a98d 16bf 9057 21c0 a4f4 813e f622 04c0
00000100: 48a4 9cbe 9e95 4b3e 2405 56be d81b eabc
00000110: 6075 1b3c 3e05 833e 3cbc 86bd cca5 3b3d
00000120: c255 7f3e e8d6 3d3f be39 1e3e b7dc fdbe
00000130: 7858 d0be 0efd 373f c4b3 bb3d cccc 28be
00000140: f04c 9d40 c4c8 09c0 052f 4b3f 472d 0c3e
00000150: 0334 1c3f fc4c a13e f2e3 29bf b693 aa3f
00000160: 104f 4dbe 0b04 a7be 484c 56bf 561d 34bf
00000170: 3029 3dbd e039 903e ffe1 0340 04c0 3a3d
-0.08567822 2.3086236 -0.07444067 3.991484 -1.0702928 -0.3109916 0.05327189 1.2484071
-3.8275938 -0.17500012 0.82801574 2.5682216 2.8339689 3.2177172 2.6622257 0.1671555
0.59988505 0.10404784 -0.86034524 -0.6648681 -0.41484135 1.0870999 -1.6493489 -0.13889158
-0.43588594 5.2382464 4.0774903 -0.22388904 -0.48320213 -0.009494752 0.09598474 -1.3896804
3.0139596 -0.4199056 -1.4029438 0.35410476 0.85664785 0.028024703 3.206555 -4.7684803
-1.5579013 -0.09496806 -0.123229094 -0.07461125 0.05435218 0.045096874 -1.814799 -0.312194
-0.6977737 0.20328496 -0.33234435 0.42358798 -1.5511332 1.2429036 2.6799936 -0.32661694
0.5835438 0.12230283 -0.6636231 -0.01254721 -0.58809906 -2.5209694 0.25381958 -2.0646338
-0.30594087 0.19881293 -0.20900398 -0.02857773 0.009488434 0.25589937 -0.065788716 0.045812413
0.24935058 0.74156046 0.15451714 -0.49582455 -0.40692496 0.71870506 0.09165147 -0.16484374
4.915642 -2.1528788 0.7936862 0.13689147 0.61016864 0.31504047 -0.6636344 1.3326328
-0.20049691 -0.32620272 -0.83710146 -0.70357263 -0.046181858 0.28169155 2.0606687 0.045593277

MobilenetV2/expanded_conv_6/depthwise/BatchNorm/FusedBatchNorm f4 [96]
00000000: 86f3 07bf 78ce b3be 2efc be3f 2c84 b23d
00000010: 3caf db3f ff5a b440 8db4 4440 a63e da3f
00000020: b824 cebd 4ecf 11bf 24e8 9c3f c626 593f
00000030: e0fe a53c 586b 53be 48e2 593d 00a4 f53d
00000040: 0000 90b6 de38 cf3e 85c0 2940 069f 19be
00000050: cceb bb3e fc13 113e 96a2 b53e ec1a 143e
00000060: dbcc 773f 141e b43d f068 babe ea39 f6be
00000070: 3bd2 4440 b8e7 01be e095 fe3d 3cee 763d
00000080: 98ae 0e3f e6a0 cb3f 6979 af40 8024 e53d
00000090: 07ce b23f 9661 d13f 2c11 943f d225 7e40
000000a0: c01a 0d3c af62 91be b7b4 f03f ae25 be40
000000b0: b8c3 a83d 24be 2a3f d193 ed3f 2454 293e
000000c0: 669a b43e 0d87 1e3d 7f72 a83f fa16 3d40
000000d0: c078 413e a255 0840 60bb 893e 8714 a140
000000e0: ae6a 6bbd 4b75 07bf 08fe 193d 52fd a13f
000000f0: 9c8c ed3e 4ca8 0b3d 7c15 5d40 be42 a840
00000100: 88ba 2cbd 1f60 ab40 3aab fa3f e208 1d40
00000110: bd86 90bd 3173 1abf 6044 bcbe 3cbc d63e
00000120: aa0c 27bf ae58 e93f 9228 3440 4057 1e40
00000130: 5e8b be3f 76a6 db3f c33b 7cbe 00b9 36bd
00000140: 2c13 9e40 a31a cb3f e88f 983e 92a8 b43f
00000150: b4ee 1c40 b6b0 ef3f 9fb4 9a40 98c0 5b3e
00000160: bc79 8440 f0bd 2ebf 106f da3e 2e69 b63f
00000170: 3c17 f240 19e9 7f40 c04d c63f c2b4 5240
-0.5310596 -0.3511846 1.4920709 0.08716616 1.7162852 5.636108 3.07352 1.7050369
-0.10065597 -0.56956947 1.2258344 0.8482479 0.020263135 -0.20646417 0.053194314 0.11994171
-4.2915344e-06 0.40473074 2.6523755 -0.15002069 0.36703336 0.1416778 0.35475606 0.14463395
0.9679696 0.087947994 -0.36408186 -0.4809106 3.0753314 -0.1268605 0.1243093 0.06028579
0.5573516 1.5908477 5.4835706 0.111886024 1.3969125 1.6357906 1.156774 3.9710584
0.008612335 -0.28395602 1.880515 5.9420996 0.082404554 0.6669638 1.8560735 0.16536003
0.35274047 0.038703013 1.3159941 2.9545274 0.18893719 2.1302266 0.26900768 5.033756
-0.057474785 -0.5291335 0.03759578 1.2655432 0.4639634 0.034096047 3.4544363 5.2581472
-0.042170078 5.3554835 1.9583504 2.4536672 -0.07056949 -0.6033202 -0.36770916 0.41940486
-0.652537 1.8230188 2.8149762 2.4740753 1.4886281 1.7160175 -0.24632172 -0.044610023
4.9398403 1.5867504 0.29797292 1.4113944 2.4520693 1.8725803 4.8345485 0.21460187
4.13986 -0.6825857 0.4266286 1.4250848 7.565336 3.9986022 1.5492477 3.2922826

MobilenetV2/expanded_conv_7/depthwise/BatchNorm/FusedBatchNorm f4 [192]
00000000: 528a 8e3f ec8a 5a3f ea27 813f e645 a640
00000010: 124e 5d3f 7527 833f 1fc5 2140 5fb7 773f
00000020: 8994 5d3f 59ef ec3f 25f7 483f 3387 3e3f
00000030: 0664 593f 1af8 713f bd8d 813f 5220 823f
00000040: 2cbf 9f3f 0bf5 1340 dbd3 9d3f 3f6c 243f
00000050: 4c02 a63f 63cc 6640 006a 283f 8f10 283f
00000060: 5c68 2340 8826 153f 7cd6 2b40 e271 0b40
00000070: 3036 a73f aff9 f73f dc34 0040 7f6d 0f3f
00000080: 4af1 543f 5076 b93f a531 1840 a995 563f
00000090: ef81 9e3e 20eb 453f 99d9 883f 41ab 443f
000000a0: 49c5 5a3f cd97 2a40 68cd a13f 264f c03f
000000b0: ce55 c93f bb0b 993f ea8b c73f 4ee4 403f
000000c0: a675 993f a916 513f 10f1 383f 09f4 423f
000000d0: 42a8 c63e 8d4a 893f a84c 903f 8438 333f
000000e0: ebac 8f3f 932f 2e3f a358 883f 5b30 3c3f
000000f0: b49e 513f 24f0 c73f 1c77 4b3f 25e4 0c40
00000100: a5e8 da3f f3c0 0c40 b4dc 173f 4f5a 683f
00000110: 0543 da3f dc0e 893f 6841 673f 4fbc ca3f
00000120: d3c8 0a3f 7106 193f 9eaa 1940 ddbd 913f
00000130: 2762 5f3f eaa4 9a3f d32e d73f 3e9a a93f
00000140: be5c 403e fc22 f43f fe76 9f3f f4cd 663f
00000150: b38d b23f 464c 6b3f 365f af3f 3e41 e23e
00000160: 6775 713f 7bb0 893f 03e3 8f3f 9e0f 973f
00000170: 187b bc3f d26c 433f 17b1 683f 7797 823f
00000180: f75e b43f b1fb df3f 916f d03e 5fa5 923f
00000190: 0b3a c03f d4b8 8a3f 044e 4d3f d9cd 263f
000001a0: d975 893f 1adc 753f 58a0 893f 7a97 893f
000001b0: 4e9d 8c40 e4ea ad3f 7690 843f be78 da3e
000001c0: 1526 6d3f a529 b03f 566a b43f 42b5 3c3f
000001d0: c5fa 3b3f 4fdb 223f 7e69 1a3f a274 2f3f
000001e0: e90d a23f 5d74 6c3f e772 8a3f 878f 223f
000001f0: 0601 1b3f 58bb 433f 05ea a73f 019c d73f
00000200: 0ecc 853f a3ea 283f 7a4b 2341 e99c f53f
00000210: 3c8c 0140 839d 4c3f 19bb bb3f 27e0 453f
00000220: b29c 1e3f 4771 bf3e 7014 273f d5a0 503f
00000230: 9fe5 963f fc70 d53f 5a7a 323f a9cf cf3f
00000240: 95db a83f 440f 3b3f e1fb d63f 6afa 383f
00000250: 7c86 f83e db38 833f 148e a83f b78b ed3e
00000260: 2a20 b13f b322 023f 0111 ff3e cc15 2040
00000270: 75c0 533f 6339 343f 383f 893f 4b59 083f
00000280: e7ee 8a3f 1126 e23f 09f6 163f 6dae e13e
00000290: 7ee3 443f 16ea 0d40 77c7 493f 2571 9f3f
000002a0: 33e9 c23f 4c81 af3f 3483 4b3f 7016 663f
000002b0: 9fff 753f 5586 2a3f b6a6 b73f c288 8b3f
000002c0: f1bf 4640 4ebb 853f f944 533f 35fa 4f3f
000002d0: 2730 da3e 2434 0f3f a8d2 b13f 8eb7 e13f
000002e0: e578 7340 161a 2f3f db49 af3f 40b8 5f3f
000002f0: 730f de3f 3e98 343f 8926 c83f 7ef5 1e3f
1.1135962 0.8536823 1.0090306 5.1960325 0.8644725 1.0246416 2.5276563 0.9676418
0.8655477 1.8510543 0.7850211 0.7442505 0.8491825 0.945192 1.012138 1.0166113
1.2480216 2.3118312 1.2330278 0.6422767 1.2969451 3.6062248 0.65786743 0.65650266
2.5532446 0.5826192 2.684966 2.1788259 1.3063412 1.9373072 2.0032263 0.5602645
0.8318068 1.4489231 2.37803 0.83822113 0.30958506 0.773119 1.0691406 0.7682381
0.85457283 2.6655152 1.264081 1.5024154 1.572931 1.1956705 1.5589573 0.75348365
1.1989028 0.816752 0.7224283 0.7615362 0.38800246 1.0725876 1.1273394 0.7000811
1.1224645 0.6804134 1.065205 0.73511285 0.81882787 1.562016 0.7947862 2.2014248
1.7102247 2.1992767 0.5932114 0.907628 1.7051703 1.070766 0.90334177 1.5838717
0.54212683 0.59775454 2.4010386 1.1386067 0.87259144 1.2081578 1.6811165 1.3250196
0.18785378 1.9073176 1.2458189 0.9015801 1.3949493 0.9191326 1.3700931 0.441904
0.94319767 1.0756983 1.1241153 1.1801641 1.4725065 0.7633792 0.9089522 1.0202473
1.4091481 1.7498685 0.40710118 1.1456717 1.5017713 1.0837655 0.8019717 0.6515785
1.0739089 0.96038973 1.0752058 1.0749352 4.394202 1.3587308 1.0356586 0.42670244
0.92636234 1.3762709 1.4094951 0.7371408 0.7342952 0.6361589 0.6031722 0.6853734
1.2660495 0.92365056 1.0816315 0.63500255 0.60548437 0.7645774 1.3118292 1.6844484
1.0452898 0.6598303 10.205927 1.918851 2.0241842 0.79927844 1.4666473 0.77295154
0.6195785 0.3739111 0.6526556 0.8149541 1.1788825 1.6675105 0.69717944 1.6235248
1.3192011 0.7307017 1.6795617 0.722571 0.48540103 1.0251726 1.3168359 0.46395656
1.3837941 0.50834197 0.4981766 2.5013304 0.8271554 0.70400065 1.0722418 0.5326125
1.0854157 1.7667867 0.5896917 0.4407839 0.76909626 2.2174125 0.78819984 1.2456404
1.5227417 1.3711333 0.79497075 0.89877987 0.9609317 0.66611224 1.4347751 1.090111
3.1054652 1.0447786 0.8252712 0.8124116 0.42614862 0.55938935 1.3892412 1.7634141
3.8042538 0.6839918 1.3694414 0.8739052 1.7348465 0.70544803 1.563676 0.6209334

MobilenetV2/expanded_conv_7/depthwise/BatchNorm/FusedBatchNorm1 f4 [192]
00000000: 542e a13f 9468 213e cec9 cc3f 62ad b6bf
00000010: 8871 ffbd b087 cebf 1e7b 593f 38d4 a43f
00000020: 4702 54bd 50b9 413f 4ad0 fabd 5a34 98bd
00000030: b052 40be 554d 7d3f 5e93 debf 823e 86be
00000040: 4065 0e3f ab54 38c0 a64c d9bf 27dc abbe
00000050: ea6f 1a3f a140 bfbf dce1 ad3f 7a32 a03e
00000060: 8214 28c0 759c 8d3d ee1a b03f 2e7a 0bc0
00000070: 70ac 4d3e 246d 4fc0 4672 c3bf 405f 7cbd
00000080: ba95 b53f 9a5d 97c0 c02e a2c0 8ad7 d43f
00000090: 3804 6ebe cff7 9f3f 68a9 20bf d62b 60bf
000000a0: faf2 47be 4671 9fc1 1109 8640 6341 87bf
000000b0: 47a1 ca3e 77a0 16bf c8e6 78bf 145f 8cbc
000000c0: 480b ab3f 30b1 f6bc fce7 f13f 9828 5440
000000d0: c909 2cbe e86c 793e e052 bf3f c098 263c
000000e0: 4481 dabf 68b9 513f d8bb 683e bfe3 4fbe
000000f0: c2aa bebf 1c51 b0bf 0284 1ebf befb e93e
00000100: 8490 bbbe 641d f8be 5e32 9d3f c2f3 043e
00000110: 2839 02be 3154 d1bf 1154 8a3e 7a19 52bf
00000120: 22c2 913e 2429 7dbd 3527 2ec0 d88c f13d
00000130: 98f3 0abe f367 a4bf db37 8bbf 2772 aebf
00000140: 1738 3040 921f 813e 8421 163f a04f 613d
00000150: 8c6a 65bf ffa3 49be eee9 e5bf 5c06 4b40
00000160: e5fb 833f 5eb4 9e3e 4a8f 6cbe cdab 69bf
00000170: 522f 38c0 1655 0abe 5a28 8ebf dd75 d6bf
00000180: 4b29 0fc0 2a1a 2dbf c4a9 c73f d8ad 91bf
00000190: 3eb8 733f 4f2f 1540 0afc 25be ebe3 18be
000001a0: b600 3dc0 30cb 62bd 04e3 87bc 9801 e63c
000001b0: ca51 e1bf 3620 83be 1a35 5dbe e628 fcbc
000001c0: 4c5a 9a3e f2cc b1bf b671 3cbe e793 d8bd
000001d0: 5c9e 55be 20f1 fabe 93a6 ad3f 5585 0840
000001e0: 0cbd 11be 38a8 20bd fa9a 7e3e 48c8 c53d
000001f0: c8dc 5740 080f 863d bd2d 0d3f 7a4c 05c0
00000200: c396 79be b0ba 9fbe 9be6 9ec2 4095 a9bd
00000210: 859b 1dbf 5de1 5440 def1 04bf 3ea2 003f
00000220: 6d2a 2fc0 f758 3ebd 8073 cebe b0b9 08c0
00000230: 4645 623f 4aef b9bf ad2a 0e40 0058 c13c
00000240: 84aa c5bf 6719 2a3e fb44 1741 571d b43f
00000250: 6063 8bbd 5408 4cbc 4c48 1340 2001 04bd
00000260: 04d6 82be ef23 bf3f 41d7 fcbd 70fe 58c0
00000270: 2360 073f eec8 27c0 459d f3bf 3e9e 3b3e
00000280: 4299 90bf 425b 1cbe c0a9 03bd f629 9dbf
00000290: 3930 7740 4090 c43d 749a 48bd fbc6 83be
000002a0: 48e8 d33e bcc2 69be 55f6 abbd 00a6 b2bf
000002b0: 7358 2b3e 9c28 8c3e 387d 8f3f c0f5 aebe
000002c0: 148f 72c0 401b 743d 4b8c d63e 755b d03f
000002d0: bead 9f3f 7411 21be 3c9e 26c0 da38 dabf
000002e0: 3cb8 16bf 0667 5bbe 666e 233f e770 b83e
000002f0: ca06 6cbf 56fb 2cbf 468d 033f 4c97 bb3e
1.2592263 0.1576255 1.5999086 -1.4271662 -0.12472826 -1.6135159 0.84953487 1.2877264
-0.051759984 0.7567339 -0.12246759 -0.0743186 -0.18781543 0.98946124 -1.7388723 -0.26219565
0.55623245 -2.8801677 -1.6976516 -0.335664 0.6032702 -1.4941598 1.3584552 0.3128851
-2.6262517 0.069146074 1.3758218 -2.1793323 0.20085311 -3.2410364 -1.5269248 -0.061614275
1.4186318 -4.730176 -5.068207 1.6628277 -0.23243797 1.24975 -0.62758493 -0.8756689
-0.19526282 -19.93031 4.1886067 -1.056683 0.3957617 -0.588386 -0.97227144 -0.01713518
1.3362818 -0.030113786 1.8898921 3.3149776 -0.16800608 0.2435795 1.4947166 0.010168254
-1.7070699 0.8192353 0.22727907 -0.20301722 -1.4895861 -1.3774753 -0.6192018 0.45699877
-0.36633694 -0.48459923 1.2280996 0.12983611 -0.12717116 -1.6353818 0.27017263 -0.82070124
0.28468424 -0.061806813 -2.721143 0.11794442 -0.13569486 -1.2844223 -1.0876421 -1.3628587
2.7534235 0.252194 0.5864489 0.055007577 -0.896157 -0.19691466 -1.7962015 3.1722631
1.0311247 0.30996984 -0.23101535 -0.9127777 -2.8778882 -0.1350902 -1.1106064 -1.6754719
-2.2368953 -0.6761805 1.5598683 -1.1381178 0.95203006 2.3310125 -0.16209427 -0.14930694
-2.9531684 -0.055369556 -0.016587742 0.028076932 -1.7603085 -0.25610512 -0.21602288 -0.03078122
0.30147016 -1.3890669 -0.18402752 -0.10575085 -0.2086119 -0.4901209 1.356646 2.133138
-0.14232272 -0.039222926 0.24863806 0.09657341 3.3728504 0.06545836 0.55147916 -2.0827928
-0.24373917 -0.3119712 -79.4504 -0.0828042 -0.6156543 3.326255 -0.5193156 0.5024756
-2.7369645 -0.046471562 -0.40322495 -2.1363335 0.8838695 -1.452615 2.2213547 0.023601532
-1.5442662 0.16611253 9.454341 1.4071454 -0.06806064 -0.012453157 2.3012877 -0.032227635
-0.25553906 1.4932841 -0.12345744 -3.3905296 0.5288107 -2.6216388 -1.903237 0.18322083
-1.129677 -0.15269187 -0.032144308 -1.227843 3.8623183 0.09597826 -0.048975423 -0.25737748
0.41388154 -0.22828192 -0.083965935 -1.3956909 0.1673296 0.27374732 1.1210089 -0.34171867
-3.7899828 0.0595963 0.4190391 1.627791 1.2474897 -0.15729314 -2.6034079 -1.70486
-0.5887487 -0.21426019 0.6384033 0.36023638 -0.9219786 -0.6757101 0.5138744 0.36638868

MobilenetV2/expanded_conv_8/depthwise/BatchNorm/FusedBatchNorm f4 [192]
00000000: 6484 1540 37ba 8d3f 30fd 163f 69cf df3f
00000010: 2441 6e3f 6d75 a43f 8baa 1f40 8a98 343f
00000020: ca78 643f 2c74 833f d2f4 603f b00b 1840
00000030: cf98 653f d2b7 c03f 618a a13f 53e4 6a3f
00000040: e395 3b3f c82a 923f 6d42 0a3f a837 cc3f
00000050: 2f2d 1c3f 9984 8f3f b16d 7e3f 9624 a63f
00000060: b1f6 f03e 533f f93e f60f 913f aba4 c33f
00000070: 6325 833f f4d9 1740 6fca 463f 6df0 7b3f
00000080: 2a10 953f f604 c43f d877 493f da3c 853f
00000090: 1aae 693f e9c0 243f 2f82 fb3e f8ed 243f
000000a0: 1c49 673f e698 cb3f 4ff0 583f ccca 8f3f
000000b0: 8e65 d33f 0f97 823f 350b b63f dd52 0440
000000c0: 768c 8b3f d283 143f 5724 9a3f cf5a dc3f
000000d0: 622b 0740 d59d aa40 132e 553f 4362 8e40
000000e0: 79e8 5f3f b2ce 8b3f c953 453f 39c9 943f
000000f0: ca6e 4040 afe0 fb3f 2437 383f 5ea6 763f
00000100: 1941 a83f d451 f13f d996 693f f910 993f
00000110: 14b6 983f 37cc 2c3f f1f6 b13f 0c03 4c3f
00000120: 2bb7 1240 bf2b 083f 9d6a 793e bb0e 8a3f
00000130: d19d ab3f e9cb 4a3f 924d 773f 6114 4e3f
00000140: f9cd 9d3f bf07 313f 510e f33e cadf 1c3f
00000150: a61b 4e3f f643 a13f aa0b aa3e de64 a13f
00000160: 2224 883f aa99 753f 2aa1 0c40 915d 2e3f
00000170: 291d 843f 5db8 cf3f 5809 483f 022b 643f
00000180: cf88 683f 1a59 0840 ed23 cc3f d508 023f
00000190: dc31 0240 aa66 bc3f 21ca 663f 0b65 653f
000001a0: 53a5 683f ce9e 813f 270f 873f 5125 8a40
000001b0: 67ba a33f 228f 873f 7bd4 a03f f481 2d3f
000001c0: d5e9 9e3f 6b2a 803f 45bc 5f3f 81c4 0f3f
000001d0: 9c00 433f de59 aa3f f2b6 813f 52f2 893f
000001e0: 9549 383f 61af 3b3f 1c79 273f 94a6 2d3f
000001f0: 3cc8 1a3f 6aa2 913f 468d c23f dbe4 863f
00000200: e49c e63f 544b e83f 1e9b 2c3f 44a1 3340
00000210: 4d3e 773f fbee a83f f443 1c3f 2757 0c3f
00000220: 7af3 f83e 2a85 5a3f 6252 1940 82cb 5c3f
00000230: 8c52 e23f aab5 ef3f c6af 1c3f 3a53 833f
00000240: 2c2d eb3e a98f 703f 3d4d 593f 12ac c33f
00000250: 6226 933f 07fb 5b3f ba82 fc3f 2fb7 343f
00000260: 841a 3c3f c3f4 353f 812e 8c3f 0aa1 593f
00000270: 0727 0540 b69b 8b3f 6981 363f 8c03 6b3f
00000280: 724c a13e 424e ae3f 4f66 523f 6de8 ed3e
00000290: 94fe 9d3f 0555 483f d64c 373f 57e7 5a3f
000002a0: 12a8 6a3f d8c5 183f 61a1 503f 0de2 0340
000002b0: e568 c73f 4b1d 1d3f 55d0 ca3f 0af1 d93e
000002c0: e748 8a3f 0cea c13e 01e9 a43f 53a9 873f
000002d0: 2f23 af3f 9050 273f b297 833f b932 e83f
000002e0: bfa6 0740 9dbe f33d 092a 3c3f 03df 5a3f
000002f0: 7b03 433f 82d1 ca3f 06b4 923f c044 0d40
2.3362055 1.1072453 0.58980083 1.7485172 0.93068147 1.2848336 2.494784 0.70545256
0.8924681 1.0269828 0.87873566 2.3757133 0.8968629 1.5056098 1.2620355 0.91754645
0.73275584 1.1419306 0.5400761 1.5954485 0.61006445 1.121234 0.99386126 1.2979915
0.4706321 0.48681125 1.1332996 1.5284628 1.0245785 2.3726778 0.7765264 0.98413736
1.1645558 1.5314014 0.7869849 1.0409195 0.9128128 0.6435686 0.4912276 0.6442561
0.9034593 1.5906036 0.8474168 1.1233764 1.6515367 1.020235 1.422217 2.0675576
1.090224 0.5801364 1.204234 1.7215213 2.1120229 5.3317666 0.8327343 4.449495
0.874641 1.0922453 0.7708097 1.1623908 3.006762 1.9677943 0.7195914 0.96347606
1.3144866 1.8853097 0.912458 1.1958305 1.1930566 0.6749911 1.3903486 0.7969215
2.2924297 0.5319175 0.24357076 1.0785745 1.3407537 0.7921739 0.9660274 0.80499846
1.2328483 0.69152445 0.4747186 0.61278975 0.8051094 1.2598865 0.33212024 1.2608907
1.0636027 0.959376 2.1973367 0.6811152 1.0321399 1.6228138 0.7813926 0.89128125
0.90833753 2.1304383 1.5948464 0.50794727 2.0342932 1.471883 0.90152174 0.89607304
0.90877265 1.0126588 1.0551499 4.317055 1.279126 1.0590556 1.2564844 0.6777642
1.241511 1.0012945 0.8739665 0.56159216 0.76172805 1.3308675 1.0133955 1.0777075
0.7198728 0.7331448 0.65419173 0.67832303 0.60461783 1.137769 1.5199363 1.0538591
1.8016629 1.8147988 0.6742419 2.8067179 0.9657944 1.3197931 0.6104119 0.54820484
0.48623258 0.8535944 2.3956532 0.8624803 1.7681441 1.8727314 0.6120571 1.0259774
0.459329 0.9396921 0.8488348 1.5286887 1.1496089 0.8592991 1.9727395 0.70592016
0.7347796 0.710766 1.0951692 0.8501135 2.080507 1.0906894 0.71291214 0.9180229
0.31503636 1.3617632 0.8218736 0.4646639 1.2343316 0.7825473 0.7160162 0.85509247
0.91662705 0.59676886 0.81496245 2.060672 1.5578886 0.6137282 1.5844828 0.4256671
1.0803498 0.37873876 1.2883607 1.0598549 1.3682612 0.65357304 1.0280669 1.8140479
2.1195524 0.11901591 0.7350164 0.8549654 0.76177186 1.5845187 1.1461189 2.2073212

MobilenetV2/expanded_conv_8/depthwise/BatchNorm/FusedBatchNorm1 f4 [192]
00000000: 504e 23bf ee6f a3be 5fa8 3d3e 8cb6 87c0
00000010: 244e 54bf fa62 b5bf e82d 35c0 40b6 90bc
00000020: 26fa c33f 385f a5be c65e 7ebe 2bdb c240
00000030: 87e7 423f dce3 5abe 7cd5 5c3e 5f1c 10c0
00000040: 7cee e33f 76a1 82be 6631 763f d4f7 d2bd
00000050: c843 dbbf dc41 2d40 927d 9640 ea95 ccbf
00000060: c07d 063e c014 d5bf a803 cb3e 9a7a 083f
00000070: aa56 8e40 402a 3dc0 52ce 4540 eeb6 b53f
00000080: 744f 77bf 9968 8cbf d1d1 59c0 b2b5 1bbe
00000090: 827d 5fc0 d8b6 8ebf 654b f13f 1091 0640
000000a0: e847 973e 905c 183f 7674 1abf b42f 56bf
000000b0: 1aeb 873f 536e 04bf 32b4 e9bf a083 e13e
000000c0: ca16 95bf 80b7 4e3a d860 31bf 3030 90bf
000000d0: a762 0cc0 4a4b 1341 c633 9a3d 6461 c6c1
000000e0: 4216 e0be cafa 11c0 8d1b f53f 66ee ad3f
000000f0: 7128 92c0 5e41 e3bf 28e1 88be 4fe3 8840
00000100: 9252 36c0 88cb 06c0 72e4 f9bb 32f2 873e
00000110: d669 5340 981b 1540 17f6 97bf 8719 acbf
00000120: e9c0 95c0 a234 813f fcf4 febf 40e7 3d3d
00000130: aa02 84bf 043f 673f c706 b23f 18cf 7abf
00000140: b059 de3c df36 da3f 0d13 943f bd11 b8be
00000150: 4f16 7bbe c575 b940 54dc 5340 481f c93e
00000160: ad76 92be a02c d13e 8ac3 93bf 3347 ed3f
00000170: e644 a73d 72a8 d43f 6fa1 d9bd 2ca8 06bf
00000180: 0dc3 9f3f 5b71 fdbd 524a c0bf 8034 343c
00000190: 28e0 8ebc b733 51bf fecd 36bf b6dd 0e40
000001a0: 3aea 8dbd 60c5 8c40 e18d 37bf ee03 88be
000001b0: 3491 12c0 eb44 b4be 0e88 7cbf cf51 e0bd
000001c0: 4932 44be 3d34 3fc0 ebe4 bc3e b803 2cbf
000001d0: 4697 71c0 3032 853d 6cea f6bf dc84 76bd
000001e0: 9ce5 01c0 ea6c 05bf 2676 2e40 a47b 95bf
000001f0: 8439 f4be 9c43 cdbf bce7 c3bd c114 8fbe
00000200: 60b6 25be e93c c03d aea4 403f ae51 08c1
00000210: 0ceb 19bf e4a0 42bf 17a9 0a40 9961 2940
00000220: f7ce e0bd d6c9 c2bf 6381 803f 39bb b640
00000230: c730 25bf dc30 6f40 a652 c43f 5482 a73d
00000240: 99ba fdbe 56f4 8840 c501 da3f 2889 05be
00000250: d80d db3f 2401 04be 902f abbf 2ae5 5bbe
00000260: dae1 8dbf 3eba 973f 2e43 423e 8044 5f3d
00000270: 6a51 a33e 5874 3640 412a b1bf 5a08 c4be
00000280: 5ed8 183f c4e1 84bf 0a51 13bd e8a7 9c3f
00000290: a0f8 55bc 16b7 ad3e 6b09 8b3f d853 9dbe
000002a0: a691 b8bf 2449 1cbf 0521 c4bd 62b7 8fbf
000002b0: eef5 60bf cdb9 cfbf 6862 3ebd 3f4b c63f
000002c0: e47f 213e ee68 563f d70d 7ebf eec5 18bf
000002d0: 6e03 8cbe 0b15 df3d aab0 f9bf df44 8ebf
000002e0: 4ed7 55bf c0c2 403f 6096 bebc 34d8 88bd
000002f0: dd50 253f 284b a2bf 60a4 3b3d e6bf 5b3f
-0.6379137 -0.31921333 0.1852126 -4.2410336 -0.82931733 -1.417083 -2.830927 -0.017665029
1.5310714 -0.3229921 -0.2484084 6.089254 0.7613453 -0.21375984 0.21565813 -2.2517316
1.7807155 -0.2551381 0.96169126 -0.10301176 -1.713006 2.7071447 4.7028284 -1.598325
0.13133907 -1.6646957 0.39651227 0.53312075 4.448079 -2.9557037 3.0907178 1.4196451
-0.9660561 -1.0969421 -3.4034312 -0.1520603 -3.4920354 -1.114955 1.8851134 2.102604
0.29547048 0.5951624 -0.60333955 -0.8366654 1.0618622 -0.5173084 -1.8258116 0.44045734
-1.164758 0.000788562 -0.69288397 -1.1264706 -2.1935213 9.205881 0.07529406 -24.797554
-0.4376698 -2.280932 1.9149033 1.3588378 -4.5674367 -1.7754323 -0.2673428 4.2777476
-2.8487897 -2.1061726 -0.0076261098 0.26551968 3.3033347 2.3298092 -1.1871976 -1.344529
-4.6797986 1.0094187 -1.9918513 0.046363115 -1.0313313 0.9033053 1.3908318 -0.9797225
0.027142376 1.7047995 1.1568314 -0.35951033 -0.24520229 5.795626 3.3103228 0.39281678
-0.28606167 0.4085436 -1.1544049 1.8537353 0.08167438 1.6613905 -0.10626494 -0.5260036
1.24814 -0.123751365 -1.5022681 0.010998845 -0.01744087 -0.81719536 -0.7140807 2.2322822
-0.06929441 4.3990936 -0.71700865 -0.26565498 -2.2901125 -0.3520883 -0.986451 -0.10953104
-0.19159807 -2.9875634 0.368934 -0.67193174 -3.774858 0.06503713 -1.929029 -0.0601853
-2.0296392 -0.52119315 2.7259612 -1.1678357 -0.4770013 -1.6036258 -0.09565684 -0.2794552
-0.16182852 0.09386618 0.7525128 -8.519941 -0.6012428 -0.7602675 2.1665704 2.646582
-0.109769754 -1.5217845 1.0039486 5.7103543 -0.64527553 3.7373571 1.5337722 0.08179155
-0.49556425 4.279826 1.703179 -0.13040602 1.71136 -0.1289106 -1.337389 -0.21474138
-1.108455 1.1853712 0.1897094 0.054508686 0.31898052 2.850851 -1.384102 -0.38287622
0.5970515 -1.0381398 -0.035965957 1.2238741 -0.013059765 0.33928746 1.0862249 -0.3072803
-1.4419448 -0.61049104 -0.095766105 -1.1227839 -0.8787526 -1.6228577 -0.046480566 1.5491713
0.15771443 0.8375386 -0.9923987 -0.59677017 -0.27346367 0.108926855 -1.9507039 -1.1114768
-0.83531654 0.75297165 -0.023265064 -0.066818625 0.6457651 -1.2679186 0.045811057 0.8583969

MobilenetV2/expanded_conv_9/depthwise/BatchNorm/FusedBatchNorm f4 [192]
00000000: c63b 5e40 3903 4e3f 42ed 0e3f e783 593f
00000010: f204 0140 e52a 193f bc50 693f 6a72 5a3f
00000020: deea 623f 7700 f93e 4b02 103f 6cea 9f3e
00000030: b7cf 293f 54fc 7e3f d1f1 373f f384 aa3f
00000040: 12af 6e3f a994 3c3f 7c9d b53f 586f 1e3f
00000050: c501 573f 0c2f 383f 6c56 5a3f 0f41 2e3f
00000060: f23f a63e d07c 1b40 6f62 993f bae4 d63f
00000070: 1a33 a53f 495a 3f3f 710c 023f 2337 213f
00000080: 4597 0840 3da6 513f a7be e53f 7fc6 483f
00000090: 4f10 c83f 122c 0a40 6606 3b3f 50f6 f23e
000000a0: 259a 823f 3e92 823f 12ca 963f cb5f 913f
000000b0: 4c88 0840 5950 823f c16e 073f 9a48 273f
000000c0: c5b3 c03e 7098 1b40 ed83 e63e 8fe5 893f
000000d0: 71d5 1b3f 6d89 933f c72c 813f 9935 6b3f
000000e0: 6ea3 f13f 843b 4d3f 6f99 593f 6d68 443f
000000f0: f9e8 8b3f e698 393f 171d 813f 06a3 873f
00000100: 4feb 243f 01d7 563f e645 ad3e 4450 223f
00000110: 0cde 453f 757c 0f3f 5818 003f 80e3 af3f
00000120: c922 e83e bb3a c73e 5538 e23f a4fe 3a3f
00000130: d940 203f 6baa 003f 807d 433f 118d 513f
00000140: d400 bc3f 6cb4 873f 896a b23f bf78 0e3f
00000150: 1c8c 153f cea4 0b40 1174 2a3f e2a7 0d40
00000160: 43f0 2d3f e030 393f f896 483f f583 583f
00000170: 90a2 413f 300f 0a40 04f0 de3f 3a16 9d3e
00000180: 013f 1740 8add 1540 d928 fa3e 0b4f 423f
00000190: 5a93 bc3e 1c71 3b3f c964 673f 6864 b33f
000001a0: 7cbe 4e3f 96d2 223f cfa4 083f 1b68 413f
000001b0: e3ee 393f 8cdc 5d3f 7570 783f 16f8 2c40
000001c0: 8aa0 f93f d1af f43e 09bf 343f 518f 333f
000001d0: 796d 5b3f a4f6 c23f aada d93e d86c 723f
000001e0: c089 3b3f dc3a f83e 2c08 8b3f f499 1b40
000001f0: 0927 1e3f adcc de3e 1fc8 2a3f 4d5d 1440
00000200: 62ba 543f 0c02 f43f 6581 913f a260 723f
00000210: 7d7a 1f3f a289 903f 509d 063f b0d2 903f
00000220: 7e70 1c3f fc54 753f 733a 503f 2dc2 1d3f
00000230: e49e 253f 6b04 a63f 0f78 243f 813b c03e
00000240: df99 4140 3bfb af3f 04b9 a93e 2ca9 8a3f
00000250: 5e15 3e3f 655c de3e 92b4 b83f 138e cb3f
00000260: 2e2b f33e 8bbd 213f 0e3e 523f c293 ea3f
00000270: 619c 0b3f 8ea3 a23f d75d 353f 9ea1 1b40
00000280: 7833 7f3f be09 193f b67f 4e3f 7f29 c43f
00000290: 8191 f93e 639b 1f3f 9ba7 2c3f 58c1 c23f
000002a0: b10b 0440 5e19 813f 0230 fb3e 99da 893e
000002b0: 7cac c13f 0796 0a3f 55e2 863f 1a1a 8a3f
000002c0: 8adf 163f a247 1a3f 6e80 a33f cd0d 783f
000002d0: 94ce 823f 8b7d c23f c6db 793f 3add ab3f
000002e0: 8f26 183f e2ef be3e b583 e83f d5f5 093f
000002f0: 4873 da3e 00db 9a3f effb b23f c939 843f
3.4723983 0.8047367 0.55830777 0.8496689 2.0159268 0.59831077 0.91138816 0.8533083
0.8863963 0.48633167 0.562535 0.31233537 0.6633257 0.9960377 0.7185336 1.3321823
0.93235886 0.7366434 1.4188685 0.6188865 0.83987075 0.7194679 0.8528812 0.6806802
0.3247066 2.429493 1.1983165 1.6788552 1.290622 0.7474714 0.50800234 0.62974757
2.1342328 0.81894284 1.7948807 0.7842788 1.5629977 2.1589398 0.7305664 0.47453547
1.0203291 1.020088 1.1780417 1.1357359 2.133319 1.018077 0.5290337 0.65345156
0.37637153 2.431179 0.45022526 1.0773181 0.6087256 1.1526314 1.009179 0.9187866
1.8878 0.8016894 0.84999746 0.7672184 1.0930473 0.7249893 1.0087003 1.0596626
0.6442155 0.8392182 0.3384239 0.63403726 0.7729194 0.5604928 0.50037146 1.3741302
0.4533904 0.38911995 1.7673441 0.730448 0.6259895 0.5026004 0.7636337 0.81855875
1.4687753 1.0601935 1.3938762 0.55652994 0.58416915 2.1819339 0.66583353 2.2133718
0.67944735 0.723402 0.7835536 0.8457635 0.75638676 2.157177 1.7416997 0.3068102
2.3632205 2.3416467 0.4885929 0.7590186 0.3683117 0.73219466 0.9038816 1.4015017
0.80759406 0.6360258 0.5337648 0.7554948 0.7263014 0.8666465 0.97046596 2.702642
1.9502118 0.47790387 0.70603997 0.7014056 0.85713917 1.5231519 0.4254964 0.9469733
0.73257065 0.48482406 1.0861869 2.4312716 0.6177831 0.4351553 0.6671161 2.3181946
0.830969 1.9063125 1.1367613 0.946787 0.6229628 1.1292002 0.5258379 1.1314297
0.6110915 0.958328 0.81339186 0.61624414 0.6469557 1.2970098 0.64245695 0.37545398
3.0250165 1.3748544 0.33148968 1.0832877 0.74251354 0.43429866 1.4430106 1.5902733
0.4749388 0.63179845 0.8212594 1.8326342 0.5453549 1.2706163 0.70846313 2.4317393
0.9968791 0.5978049 0.8066362 1.5325164 0.48743823 0.62346476 0.67443246 1.5215254
2.0632136 1.0085866 0.49060065 0.2692459 1.5130763 0.54135174 1.0537821 1.0789216
0.58934844 0.60265553 1.2773569 0.9689606 1.0219293 1.5194563 0.9760097 1.3426888
0.59433836 0.3729239 1.8165194 0.53890735 0.42666078 1.2098083 1.3983134 1.0330135

MobilenetV2/expanded_conv_9/depthwise/BatchNorm/FusedBatchNorm1 f4 [192]
00000000: 424d b7bf 0008 68bb b375 9bbf 77c0 b8bf
00000010: fc71 11c0 db09 8fbf 6cd1 f4bf c94a 06c0
00000020: 9beb 8fbe a7c7 98bf 2c9d 30c0 af4a e0be
00000030: dc18 0840 f5c6 5a40 7ac6 ca3f 30d5 7ec0
00000040: 18a6 de3f 23e1 9fbf 6063 693c b19d 2b40
00000050: d0af 85be 9ac2 8ebf a23b e7bf b2e3 33bd
00000060: 509d c13d 9db4 aebf 1841 07be 66c5 673f
00000070: 2ba9 f9be 0574 c9bf c26c e73e 8607 8dbe
00000080: c6c0 8dbf 9e9e 05c0 58c9 5abe 485a 06be
00000090: 8ca6 89bf f80e b23e 6be6 d93f c546 94bf
000000a0: 52cc 3e3e e4b5 11bd a91f 953f 4f22 0340
000000b0: 0058 aabb 8048 0b3f dc07 4d3f 12a0 003e
000000c0: 72e1 1f3e 9fa0 a9bf 0735 2e40 1337 ebbf
000000d0: 2c74 353f acc8 85be b005 f6bf b484 98bf
000000e0: 2a7d b43f d010 8fbc 3ca4 80be 46bc a3bc
000000f0: 64e7 813f 14d0 9c3f 650a c3bf 6b66 1ac0
00000100: 8525 2cbf 6efb 7d3f 8e88 cbbf b896 67bf
00000110: 48f8 c43e 2c7e 36be 06cc b43e a235 66be
00000120: efd2 3c3e bef2 a6bf 4e16 52c0 3e87 0bbe
00000130: 286a 27bd 949c 3ac0 e435 1ac0 1b17 ee3f
00000140: 8e40 dc3e 9888 01c0 b8f2 84bf 0035 55bf
00000150: 59c1 423f 0cb3 9fbf 98e6 8a3f 0a4a e8bf
00000160: 3d74 093f f600 2540 d2ec 0ac0 33ef 0640
00000170: ed6d 0940 fa57 0f3f 303d 88c0 b654 5a3f
00000180: f56f 1f3f 0ccd 89bf 524a d6be 3c68 903f
00000190: 391d ce3e 3893 833f 6489 71bf 4656 69bf
000001a0: a29d 85be 10e0 933d 524b 8d3e 04be e2bf
000001b0: 60d8 f3bf 004f 6a3d 4264 9e3e a6c8 e3bf
000001c0: 3d06 a0bf b10a 4e3f 25c6 ea3f e75e 6ebd
000001d0: 48a7 803f db14 25c0 6afe 463e 4a4f a2bf
000001e0: 468d 3c3e 2909 e53f b8c6 05c0 1ef6 59c0
000001f0: 9b4c d73f ac9b 83be 374f 0dc0 0734 b03f
00000200: 586e f6bc 5af6 33be d534 1340 0de0 713f
00000210: 7832 4c40 8ca2 213e fb60 76bf 1a60 efbe
00000220: 4af5 64bf b7af 003e 884e 86bf 3b7f b13f
00000230: 95dc 0840 ff40 10bd 07aa 5e3e ad62 d93f
00000240: aee5 80c0 0a6c e3bf 0530 4abf faff cbc0
00000250: f207 3ebf 99be 59be 987e 29bd 128e 98bf
00000260: 88e4 3d3d 787b 93bf 97ec 4ebe fd36 7c3e
00000270: 7852 a83f 8e7b ebbf 86b6 2dc0 fead b63f
00000280: 41e6 e1bf 7b41 3840 e269 4d3e e005 c6bf
00000290: 53a9 ba3e 5873 96bf 3c89 513e c023 8e3c
000002a0: 4a8d b5bf 759b 53bf 0019 a6bf 282b c63f
000002b0: 5378 d53e 6bd3 9a3e 48be 423f 8a06 68be
000002c0: 4b8f 56c0 b0df 663f d341 dbbf 3d83 ab3e
000002d0: 89db 2240 5cd8 6bbe c6ba 15bf c82c da3c
000002e0: 04de 463e 5d70 1240 5812 f8bf ef74 003f
000002f0: c116 4640 04ec e43d 9e2d 72be 0a29 fbbe
-1.4320452 -0.003540516 -1.2145294 -1.4433736 -2.272582 -1.1174883 -1.912641 -2.0983145
-0.2810944 -1.1935929 -2.759593 -0.4380698 2.1265173 3.4183934 1.584182 -3.981762
1.7394438 -1.2490581 0.014244884 2.6814997 -0.26110697 -1.1153138 -1.8065073 -0.04391832
0.09453833 -1.3648869 -0.13208425 0.9053558 -0.48761877 -1.5738531 0.45200163 -0.27544802
-1.1074455 -2.0878062 -0.21365869 -0.13120377 -1.0753951 0.34777045 1.7023443 -1.1584097
0.1863263 -0.035573855 1.1650287 2.048969 -0.0051984787 0.544075 0.8009012 0.12561062
0.15613344 -1.3252143 2.7219865 -1.8376182 0.7088039 -0.26129663 -1.9220486 -1.1915498
1.4100697 -0.017464072 -0.251253 -0.019987237 1.014874 1.2251 -1.5237547 -2.412501
-0.6724475 0.99211776 -1.5901048 -0.90464354 0.38470674 -0.17821568 0.35311908 -0.22481397
0.1843984 -1.3042829 -3.2826114 -0.1362581 -0.040872723 -2.9158068 -2.4095392 1.8600801
0.43018 -2.023962 -1.0386572 -0.83283997 0.76076275 -1.2476516 1.0851622 -1.8147595
0.5369299 2.5781837 -2.1707044 2.1083496 2.1473343 0.55993617 -4.257469 0.8528551
0.6228021 -1.07657 -0.41853577 1.128181 0.4025667 1.0279303 -0.94350266 -0.9114727
-0.26096827 0.07220471 0.27596527 -1.7714238 -1.9050407 0.057204247 0.30935866 -1.7795608
-1.2501904 0.80485064 1.8341719 -0.058195975 1.005105 -2.579398 0.19432989 -1.2680447
0.18413267 1.789342 -2.0902538 -3.4056468 1.6820253 -0.25704706 -2.20796 1.3765877
-0.030081913 -0.17574444 2.3000996 0.944825 3.1905804 0.15784663 -0.9624173 -0.46753007
-0.8943678 0.1256703 -1.0492716 1.3866953 2.1384633 -0.035218235 0.21744548 1.6983238
-4.028037 -1.7767346 -0.7897952 -6.374997 -0.74230874 -0.21264113 -0.041380495 -1.1918356
0.046360523 -1.1522055 -0.2020744 0.24630351 1.3150167 -1.8397081 -2.7142653 1.4271848
-1.7648393 2.8789966 0.20059922 -1.5470543 0.3645731 -1.175395 0.20462507 0.017351031
-1.4183743 -0.82659084 -1.2976379 1.548192 0.41693363 0.30239424 0.76071596 -0.22658744
-3.352496 0.9018507 -1.7129463 0.33498564 2.5446494 -0.23031753 -0.5848812 0.026632681
0.1942063 2.288108 -1.9380598 0.50178427 3.0951388 0.11177829 -0.23650214 -0.49054748

MobilenetV2/expanded_conv_10/depthwise/BatchNorm/FusedBatchNorm f4 [192]
00000000: 0ae8 883e de73 723e 0732 233f 91e1 1b3f
00000010: a93b df3e 8481 573e 1448 683e 23b3 9b3e
00000020: 91ff ad3e 5cfd eb3e 0562 183f 2e68 dd3e
00000030: eddf 583e 2565 0a3e db23 743e b3e1 ca3e
00000040: 62bd 763e db11 c63e e937 003f c49d 773e
00000050: 8eef f13e dc90 903e a8e5 673e e999 f83e
00000060: 06d5 233e d2b6 d13e 1d80 b53e a8b9 373e
00000070: 8ade 243f c810 7c3f 2db6 bb3e d3aa 723e
00000080: 567a 1e3f 0154 1d3e 1f98 e83e ffda 173e
00000090: 94e1 c63e 8a4e 343f fb33 923e 45f1 e23e
000000a0: 2f89 723e d12c 0e3f 05c2 b43f 3209 053f
000000b0: 59c4 8e3e 2517 d23e edf9 2b3f 0726 7d3e
000000c0: 5342 b73e 64a3 b03e 61ca c53e 3586 873e
000000d0: 156f 273f 2c59 8e3e 87e9 3d3e 9209 c93e
000000e0: ec54 6a3e 7f3a 513e 59db 723e 65c5 343e
000000f0: 0b2d a33e 64da a23e ca42 9e3e 4460 453f
00000100: 78f7 f43e d4af 283e 0ee2 aa3e ec2f 963e
00000110: 5234 233f 3a33 953e 5dba a43e 31f8 8b3e
00000120: 9d42 b53e dca0 6e3e 54a3 973e 71cd c63e
00000130: 5e06 2b3f 6b55 9e3e 0e13 283e d33d f13e
00000140: 2365 be3f 6802 3d3f 7802 d33e df5d 923e
00000150: fbd4 9d3e e300 033f ac6d d93e 5538 373e
00000160: b54a b93e df66 243f df72 073f f607 253f
00000170: 0c33 1f3e 1396 b73e 1377 573f 6b5b f63e
00000180: d526 ce3e 6630 3d3f b588 163e 1588 2c3e
00000190: 429d 4d3f a6a3 993e 595b 723f 9651 963f
000001a0: 4877 a03e 7263 573e d095 6e3f 26d4 e83e
000001b0: 19e2 b03e 2285 c03e 97d3 c83e ed08 ad3e
000001c0: 14a7 4b3e c7e8 a93f ddc0 773e bb08 0b3e
000001d0: a4a7 913e 8a07 b33e 0470 f63e 2431 a73e
000001e0: 11f4 dc3d bd39 aa3e e99e 833f c703 ec3e
000001f0: 620e b13e 03b2 b33e b436 4e3e c616 3c3e
00000200: 6866 0a3f f739 1f3f 27ce 5d3e 2a1b 2f3f
00000210: 6026 183f 7193 ab3e 3da6 8b3e bfd4 203f
00000220: 8c4c 3b3f e919 773e 7349 223e c6e5 433f
00000230: 94b8 9b3e 43c0 663e 3a1d 013f 7b06 863e
00000240: ce76 ad3e 1664 dd3e 20cf 033f 6b48 1a3f
00000250: 761e df3e 6ef5 613e 9307 8a3e acde 883e
00000260: d449 063f f37b 963e d9f9 443e fc04 953e
00000270: 5343 bd3e abce eb3e 8859 5e3e bdb1 883e
00000280: 3aff 3d3e a13b 523e 4703 913e ce4e de3e
00000290: 0cd0 483e 17d4 903e 0ec7 9e3e 3414 033f
000002a0: 8497 4e3f bfc0 2e3f 1f78 2d3e 1a3c a23e
000002b0: dbd5 923e 7d55 a73e b246 7c3e db8b cc3e
000002c0: d264 fa3e cc52 603f a42d 513e 1c56 9d3e
000002d0: 34e8 633f c889 233e d0e2 853e e26a 883e
000002e0: 8fb4 7b3e 9481 f53e 26b8 743e 4d38 c03e
000002f0: 41d9 983e 8ba6 d53e 7be7 053f 5ff6 b53e
0.26739532 0.23677012 0.6374821 0.6089106 0.43600205 0.210455 0.22683746 0.30410108
0.33984044 0.46091735 0.59524566 0.43243545 0.21179171 0.13515146 0.23841803 0.3962532
0.24095681 0.38685498 0.5008531 0.24181277 0.47253078 0.2823552 0.226462 0.48554924
0.1599923 0.40959793 0.35449305 0.17941916 0.6440207 0.98463106 0.36662427 0.23697977
0.6190542 0.15364076 0.4542856 0.14829634 0.38843977 0.7043234 0.28555283 0.443247
0.23685144 0.55537134 1.412171 0.51967156 0.27884176 0.41033283 0.6717823 0.24721538
0.3579279 0.34499657 0.38630965 0.2646958 0.6540387 0.27802408 0.18546115 0.39265114
0.22883958 0.2043247 0.23716487 0.17653425 0.31870303 0.31807244 0.3091033 0.77100015
0.47845054 0.16473323 0.3337559 0.29333436 0.6375171 0.29140645 0.32173434 0.27337793
0.35402384 0.2330355 0.29616797 0.38828614 0.6680659 0.30924544 0.16413519 0.4711748
1.4874614 0.73831797 0.4121282 0.28587243 0.30826554 0.5117323 0.42466486 0.17892583
0.3618981 0.6421947 0.52909654 0.6446527 0.15546817 0.35856685 0.8416607 0.4811662
0.40264 0.73901975 0.14700587 0.16848786 0.8031808 0.30007666 0.94670635 1.1743648
0.31341004 0.21034029 0.93197346 0.45474356 0.345475 0.37601572 0.3922393 0.33795872
0.19887954 1.3274163 0.24194665 0.13577549 0.28448212 0.3496669 0.48132336 0.3265468
0.107887395 0.33247176 1.028287 0.46096632 0.34581286 0.3509675 0.20138055 0.18368062
0.5406251 0.6219782 0.21660672 0.68400824 0.59433556 0.33510926 0.27275267 0.62824625
0.73163676 0.24130978 0.15848331 0.7652248 0.3041426 0.2253428 0.5043522 0.2617682
0.33879703 0.43240422 0.5148792 0.6026675 0.43577927 0.2206628 0.26958904 0.26732385
0.524564 0.2939144 0.19235934 0.29105365 0.36965427 0.46056113 0.21713841 0.26698104
0.18554392 0.20530559 0.28322813 0.43419498 0.19610614 0.28286812 0.31011242 0.512027
0.80699944 0.6826286 0.16940354 0.3168648 0.28678784 0.3268241 0.24636343 0.3995045
0.48905045 0.8762634 0.20427567 0.3072976 0.8902619 0.15970528 0.26149607 0.26644045
0.24580596 0.47950423 0.23898372 0.37542954 0.29853252 0.41728625 0.52306336 0.3553953

MobilenetV2/expanded_conv_10/depthwise/BatchNorm/FusedBatchNorm1 f4 [192]
00000000: e898 8040 805f 033d e24d 93bf 6232 853e
00000010: 5e76 acbd 7afc 1c3f 7b3b 5d40 da6d efbe
00000020: 6848 633d 420c 82bd 8f24 82be 9fab ec3f
00000030: 9938 163f 8392 2b40 a0ea 21bf b0b0 2740
00000040: fead 823f 6874 733d 9c85 c6be 0c4f c73f
00000050: 1286 413f a047 d83e 9f18 8640 880e 14bd
00000060: 7664 4140 5718 febd 8886 acbe ae32 a43f
00000070: 8920 74bf c3d8 0bbf 5dd8 3bbe cb2e bc3f
00000080: 8a44 61bf 44fa b73f be74 3940 93ea 1140
00000090: 2b2e 88c0 c9bf 1bc0 1dfa 3040 a788 4740
000000a0: 2751 dc3f b005 08c0 1f45 2641 ba8b 5340
000000b0: eeb7 1e40 637a 2bbf 82ec 2fc0 6877 043e
000000c0: 747a fc3f feea 9f3f e0a7 fabe 666f 143f
000000d0: e5ed d3bf 6e0c fe3f 6ae6 4340 2d15 393f
000000e0: 0384 113f 50df 9f3f ca1c de3f 2d6a 793f
000000f0: c966 5740 b645 003f deef 0c40 4af0 48bf
00000100: 2b24 91bf d250 c13f daf3 4a3f b0cb 993f
00000110: e34c 78bf 70ba b8bd 58e1 debe 71d5 eb3e
00000120: c3fc b240 2cd7 0240 4de2 3240 040f 5840
00000130: e8a7 24bd ebea 2240 38f3 2240 9a74 babe
00000140: aeda 953e 7ad5 1e3f 653d be3f c9ca b43f
00000150: 408c ea3c 4744 30c0 2585 5440 670e 81bf
00000160: e28c d6be e140 8ebf 3686 55bf 2ed0 42bf
00000170: 0ce3 7340 86d5 863f 692c 5d3f b294 d0be
00000180: 5484 f43e d9a2 8840 2eaa 8f3f 485d b23f
00000190: 8c56 853e 203d b83c 86c7 63c0 e4a8 943f
000001a0: a0b9 15bc b953 0240 230f 90bf 0cf6 e0bf
000001b0: 6ee0 7540 b677 1ebe 8402 2940 272f 843f
000001c0: a077 933f 40fa 8fbe 804f ce3c 58b1 763f
000001d0: e4d7 1940 e629 8abf 1076 a7bd 1620 0dbf
000001e0: 61ed a93f fb48 943f 14ba c840 2563 4240
000001f0: d038 8dbe 0220 823f c0c2 a33f 2a87 e53f
00000200: d4ee 503f 7d55 85bf d07b 8e3f a9ff 6140
00000210: 007d 743f 4f33 8a3f 6e99 b93f 41df 07c0
00000220: 8130 573f 083d 953d 5185 ce3f 9459 573f
00000230: 3acc 0240 c8c4 fe3d c022 9abf 678b 7240
00000240: b4c3 2b3f bfaa 5b40 c012 73bd 780a 233d
00000250: 6b41 fc3f 540f e03f 3588 ccbe cca7 b1bd
00000260: 6013 333f 8829 82bf c24f b23f 929e 9240
00000270: 84cb cfbf 3ec2 ffbf 5e70 8b40 51f5 3a40
00000280: 7f31 0740 b86c 993d 6ee4 1940 219e 5840
00000290: e12f ee3e 640b 523f e48c 20bf 0e34 1240
000002a0: bff3 e23f c84e 9f3c d03c 1040 0468 f8be
000002b0: d5f7 303f 79de 8340 935a 51be 6f31 ecbe
000002c0: 473b 8640 32c7 eb40 a8b4 733f f36b 1c40
000002d0: 7d61 1fbf 2662 623f 084a 2c3d e47e 2a40
000002e0: 0cc1 88bd 7119 80bf cb0b df3f 818d 5240
000002f0: 2410 30bf 86a5 4840 9419 73c0 842e 84bf
4.0186653 0.032073498 -1.1508143 0.26015002 -0.08421014 0.6132275 3.4567554 -0.46763498
0.055488974 -0.06349994 -0.25418517 1.8489875 0.5868011 2.6808174 -0.63248634 2.6201591
1.0209348 0.059437186 -0.3877381 1.5570998 0.755952 0.42242146 4.1905055 -0.03614667
3.0217566 -0.12406986 -0.3369639 1.2827966 -0.95362145 -0.5462763 -0.18344255 1.470178
-0.8799521 1.437325 2.8977504 2.2799423 -4.2556357 -2.4335806 2.7652657 3.1177156
1.7212266 -2.1253471 10.391875 3.3054032 2.4799762 -0.6698362 -2.7488103 0.12936175
1.972487 1.2493589 -0.48956203 0.5798248 -1.6556975 1.9847543 3.0609384 0.72297937
0.5684206 1.2490025 1.7352536 0.97427636 3.3656485 0.5010637 2.2021403 -0.7849165
-1.1339163 1.5102789 0.7927834 1.2015285 -0.9699232 -0.09019935 -0.435313 0.4606128
5.5933547 2.044383 2.7950623 3.3759165 -0.04019919 2.5455883 2.546095 -0.36417085
0.29268402 0.6204449 1.4862486 1.4124385 0.02863133 -2.7541673 3.3206265 -1.008252
-0.4190436 -1.111355 -0.83407915 -0.76098907 3.8107328 1.0533912 0.8639589 -0.40738446
0.47757208 4.269879 1.122381 1.3934717 0.26042593 0.022490084 -3.559053 1.1614041
-0.009138495 2.03636 -1.1254619 -1.7575088 3.841823 -0.15475354 2.6407785 1.032689
1.1520882 -0.28120613 0.025184393 0.96364355 2.403802 -1.0794036 -0.081768155 -0.55127084
1.3275567 1.1584772 6.2727146 3.0373013 -0.27582407 1.0166018 1.2793808 1.7931874
0.8161442 -1.0416714 1.1131535 3.5312293 0.95503235 1.0796908 1.4499948 -2.1230013
0.84058386 0.072870314 1.6134435 0.8412106 2.043715 0.12439877 -1.2041855 3.7897584
0.67095494 3.4322965 -0.059344053 0.039804906 1.9707464 1.7504678 -0.39947668 -0.08674583
0.6995144 -1.0168924 1.393059 4.5818567 -1.6233983 -1.9981153 4.3574667 2.921223
2.112396 0.074914396 2.4045672 3.3846514 0.46520904 0.8204863 -0.6271498 2.2844272
1.7730635 0.019446746 2.2537117 -0.48516858 0.6912816 4.1209073 -0.20444708 -0.46131465
4.194736 7.368066 0.95197535 2.4440887 -0.6225813 0.8843101 0.04206279 2.6639948
-0.06677446 -1.0007764 1.7425474 3.2898867 -0.6877463 3.1351027 -3.7984362 -1.0326695
